data.pth (torch, 12119 bytes, 6 tensors)

l1.weight f4 [8, 190]
000000 4e 9c 36 be 3b 4d 02 bf b7 1c 43 3d ad c6 e9 bd
       -0.17833063 -0.50899094 0.047634806 -0.114148475
000010 8a 10 4e bf 60 f5 ca 3c 96 c6 38 3f 4c a2 20 3f
       -0.80493987 0.024775207 0.7217802 0.62747645
000020 48 ad e2 bd 03 5a 58 3e fc 05 20 3f e0 ba cf be
       -0.11068207 0.21128087 0.6250913 -0.40572262
000030 5f 03 64 be 7a 9e da 3e a5 d8 ba 3e d4 e0 08 bf
       -0.22266911 0.42699033 0.36493412 -0.5346806
000040 c4 70 13 3c 02 25 9b 3e 77 ab 78 3f 0f 6b 3d be
       0.008999053 0.30301672 0.97136635 -0.18497871
000050 a4 31 ff 3e 4d e9 1c 3f 2f cf 14 3e 27 15 b2 3e
       0.4984256 0.6129349 0.1453216 0.34781763
000060 84 f6 36 bf 6d b9 08 be ad 6e 83 be d8 73 71 be
       -0.71469903 -0.13351984 -0.25670376 -0.23579347
000070 00 62 40 3f 88 bb d8 be df e7 fd 3e 9f 3b ea bd
       0.75149536 -0.42330575 0.49590966 -0.11437153
000080 94 b9 bc 3e 1e 00 a7 3f 9e cc 0f bf 1e 13 9d 3e
       0.36860335 1.3046911 -0.56171596 0.30678648
000090 03 77 e5 3d 36 25 23 bf b1 6b 2b be fd f9 46 3e
       0.1120434 -0.63728654 -0.167403 0.194313
0000a0 82 ce 1b 3f d0 14 56 bf dd 78 1a 3f 2b 66 5e 3f
       0.6086198 -0.8362551 0.6034067 0.86874646
0000b0 45 dd a1 3f ff 1e d1 3e ed 5b e7 bd f7 7d d3 bd
       1.2645651 0.4084396 -0.1129683 -0.1032676
0000c0 aa b9 c2 bd 81 5d 88 3f 56 c2 15 3c cd 71 f1 3e
       -0.09508069 1.0653535 0.009140572 0.47157136
0000d0 f5 d5 e2 3e 2f f7 43 be 16 1a 44 3c 98 32 37 3e
       0.4430386 -0.19137262 0.01196911 0.17890394
0000e0 5a 15 56 3f 57 69 8f bf e6 71 61 bf 0d 29 b8 bd
       0.8362633 -1.1204022 -0.8806442 -0.08992205
0000f0 f4 39 ae 3e 23 29 91 3d 5e 29 30 3f 52 ac e7 3e
       0.3402859 0.07087924 0.6881312 0.45248657
000100 82 7d ce bd c2 3d 4a 3f 2f de 0d 3f 52 dd e8 be
       -0.100825325 0.79000485 0.5541715 -0.45481354
000110 4f d8 aa bd 22 e2 85 be ff b0 cc 3e de fe 1a 3e
       -0.08342039 -0.26149088 0.39978787 0.15136287
000120 19 34 c6 3e 66 1a 82 bc a0 f8 ee be 84 42 1c bf
       0.38711622 -0.015881728 -0.4667406 -0.61038995
000130 28 d1 2a bf c7 cb 82 3e 07 cc 2f 3f 45 0f 54 3f
       -0.667254 0.25546095 0.68670696 0.828358
000140 66 88 7d 3f 58 ae 67 3f a7 d1 59 3f 2b 1e 41 3f
       0.9903625 0.905004 0.8508553 0.7543666
000150 a3 c8 5c 3f c9 dc 86 3f b1 24 2b 3f 76 3c 0b 3f
       0.8624365 1.0536128 0.6685286 0.5438913
000160 9d 63 42 3e ed e9 21 be f0 ce 4a bd 89 0e 0b 3f
       0.18983312 -0.15811892 -0.049513757 0.54319054
000170 04 d0 47 3f e6 d7 84 bf a2 e7 d6 3e 48 6d 9e 3e
       0.7805178 -1.0378387 0.41973597 0.3094275
000180 ea f1 fb 3e ca e4 14 3f 43 8f 9a 3e 8a a4 8e 3f
       0.49208003 0.58161604 0.30187425 1.1143963
000190 87 30 e3 be 20 cb ec 3d 1a b6 34 3a 95 92 40 3e
       -0.4437296 0.115621805 0.00068935903 0.18805917
0001a0 1f df 2d 3f dc 35 cc be 09 aa df be 92 b7 27 bf
       0.6791858 -0.3988484 -0.43684414 -0.6551448
0001b0 f3 cd 28 bf 62 18 29 be f7 ab 89 be a8 ea b5 bd
       -0.65939254 -0.16513208 -0.2688901 -0.08882648
0001c0 e1 c9 05 be 86 69 3e bf 3c 08 04 3d c8 c5 19 3f
       -0.13065292 -0.74379766 0.032234415 0.60067415
0001d0 57 8f 57 3e e3 a2 ad 3f ac 26 c2 bd ce 7c 03 3f
       0.21050774 1.3565334 -0.09480032 0.5136231
0001e0 e1 6a 00 bf c3 eb b9 3d 53 32 9c 3d 29 fb 74 bf
       -0.50163084 0.09078171 0.07626786 -0.9569574
0001f0 11 17 ae be 06 50 7a 3f 74 bd 2d 3f be 1d 95 3f
       -0.34001973 0.97778356 0.6786721 1.1649702
000200 fa 64 25 bb 82 f0 a0 be 30 13 8a bd a7 08 88 3e
       -0.0025237189 -0.31433493 -0.06741941 0.265691
000210 1e a4 9b 3e 92 24 31 bf d5 9d e2 3d be c6 1b 3f
       0.3039865 -0.69196427 0.1106526 0.6085013
000220 ed 15 64 be 39 fb 60 3f b1 32 0e 3e 59 9d 8d 3e
       -0.22273989 0.87883335 0.13886525 0.2765911
000230 87 9d 02 be b3 9b b3 3e bb d2 f5 3d 0c d3 6c 3e
       -0.12755404 0.35079727 0.12003084 0.23127383
000240 ed c7 9e be eb d7 7b bf e6 76 e7 3e dc b4 c7 be
       -0.31011906 -0.9837634 0.452079 -0.39005172
000250 08 2d dc 3e 18 56 9a 3e 92 65 82 be 8d 25 d7 bd
       0.43003106 0.3014381 -0.25468117 -0.10505209
000260 53 47 8c 3f d6 34 b2 3e 2d 1c b7 be ae 75 26 3f
       1.0959266 0.34805936 -0.35763684 0.65023315
000270 7b aa 58 3e b8 41 41 3f a0 65 09 be c7 49 33 be
       0.21158783 0.75490904 -0.13417673 -0.17508613
000280 1e ef 68 be 12 af 56 3e 0d c6 71 3f dc b5 2d 3f
       -0.22747466 0.20965222 0.94442827 0.6785562
000290 74 e4 ca bd b1 45 83 3e 3b 5b b2 b9 9e c0 46 be
       -0.09906855 0.25639108 -0.00034018778 -0.19409415
0002a0 62 0d 02 3e 2d 1d b7 3e cc 0d f2 be 91 b1 7e bf
       0.12700418 0.35764447 -0.4727615 -0.99489695
0002b0 97 e9 72 bd a3 a6 22 3e 75 80 c1 3e f4 32 84 3e
       -0.0593048 0.1588388 0.37793317 0.25820124
0002c0 88 37 b7 be 9c 4c 69 3f 11 44 d4 3e 85 8c d1 3e
       -0.35784554 0.9113252 0.4145818 0.4092752
0002d0 f1 21 2f 3f 2f 52 c7 3e 43 5f c9 3e 03 f2 c1 3e
       0.68411165 0.3892989 0.3933049 0.37879953
0002e0 db b7 1f 3f 67 c5 9f 3e 05 8d c0 be 96 01 29 bf
       0.62389916 0.31205294 -0.3760759 -0.66018045
0002f0 9c e8 82 3d b9 a4 64 3f 93 6c ed 3e c6 50 91 3f
       0.06392023 0.89313847 0.46371898 1.1352775
000300 c8 21 8d bd 5a 24 6b 3f f0 3f 20 3f db 91 4c 3e
       -0.06891209 0.91852343 0.6259756 0.19977514
000310 ee c5 5e bf e0 9d 6c 3f 18 25 c5 3e 49 c9 24 3e
       -0.87020767 0.924284 0.38504863 0.16092409
000320 2d b4 15 3f 16 05 c5 3e 43 69 33 3f 51 e3 0f 3f
       0.5847805 0.38480443 0.7008249 0.5620623
000330 cf cc 53 3f cb 1d 32 3f 9f 0e a5 3e 2e df 06 3f
       0.8273439 0.6957671 0.32237718 0.52684295
000340 3b b6 87 be fc 96 17 3d a0 45 64 3d 57 9c f3 3f
       -0.26506218 0.037009224 0.055730462 1.9032086
000350 8d 50 e1 3e f6 c9 17 3e e3 5a 86 3e bc f5 dd 3e
       0.44006768 0.14823136 0.26241216 0.43351543
000360 ff 32 c8 3d 8b c0 10 3e 31 92 c3 3f 60 8d 34 3f
       0.09775352 0.1413595 1.5278989 0.7052822
000370 20 37 95 be 54 99 84 3d fe 64 f8 3e 4a 46 a3 be
       -0.2914362 0.064745575 0.4851455 -0.31889564
000380 8b 08 54 3e 75 6f 29 3e 12 1f c2 be 05 fe 81 3e
       0.20706384 0.16546424 -0.3791433 0.25389114
000390 52 af 56 3e 25 2c 59 3b ca 82 fc 3e 7e 4c 98 bf
       0.20965317 0.0033137884 0.49318534 -1.1898344
0003a0 0d d6 d9 be cc 95 03 bf e8 28 7e 3f 11 9f cb be
       -0.4254612 -0.51400447 0.9928117 -0.39769796
0003b0 3d 77 11 be 13 fe d5 3e c9 9d 05 3f ad a9 0e 3f
       -0.14205642 0.41795406 0.52193886 0.55727655
0003c0 e8 f8 24 3e 14 19 ac 3e 82 63 8f 3f 36 53 83 3e
       0.16110575 0.33612883 1.1202242 0.25649422
0003d0 e3 e5 06 be df 12 a6 3e c0 bb bf bc d4 c8 ff 3d
       -0.13173632 0.32436273 -0.023404956 0.12489477
0003e0 b5 13 6d 3e 4c 36 0d 3f db 3d 2b 3e d3 17 91 3e
       0.23152049 0.55160975 0.16722815 0.2833849
0003f0 26 26 26 3e 27 3e 26 bc aa f5 8f 3f dc 73 00 3f
       0.1622549 -0.010146654 1.1246846 0.5017679

l1.bias f4 [8]
000000 ca e8 84 3f e4 d0 ce 3f ca fc 57 3f f8 ca 3e 3f
       1.0383542 1.6157498 0.843701 0.74528456
000010 ea 34 5e 3f 00 6e bc 3f 88 87 22 3f 44 e3 81 3f
       0.8679949 1.4721069 0.63488054 1.0147481

l2.weight f4 [8, 8]
000000 ea 40 7e 3d df 57 18 40 78 8a 09 40 b2 6d 60 bf
       0.062073626 2.3803632 2.1490765 -0.8766738
000010 32 8e a3 bf 18 86 89 3f ab ce a6 bf 0d 0a c6 3f
       -1.277777 1.0744047 -1.303182 1.5471817
000020 c0 64 04 40 47 03 80 3e 09 1b 8c bf 34 9b 3b bf
       2.0686493 0.250025 -1.094575 -0.73283696
000030 3d bd 88 3f 2f bb 46 be f2 b8 d1 3f dc fb 43 3f
       1.0682751 -0.19407342 1.6384566 0.7655618
000040 66 a0 fe 3f 05 9f 82 bf d4 e3 91 be 38 87 25 bf
       1.98927 -1.0204779 -0.28494132 -0.6465945
000050 c9 e3 2e 3f 9b 03 45 40 68 07 f5 3f 14 83 1b 40
       0.6831632 3.078345 1.9142885 2.4298754
000060 e3 50 95 be 94 a4 a3 3d de 1e 51 be 46 48 49 be
       -0.29163274 0.07990375 -0.20421931 -0.19656476
000070 30 b8 10 3d 28 09 53 3d 40 54 43 3d 80 6c 03 3c
       0.035331905 0.051522404 0.04768777 0.008021474
000080 f6 66 90 3e 9e a5 ad 3f 61 f6 d1 3e ee a0 f2 3f
       0.28203553 1.3566167 0.41008285 1.8955362
000090 06 e0 34 40 c9 c0 73 bf 5f 62 1f bd 97 92 58 bf
       2.8261733 -0.9521604 -0.038912173 -0.8459868
0000a0 f8 8e bd bf 7b 2a d9 3e 81 1f 28 40 db 77 11 40
       -1.4809256 0.42415223 2.6269228 2.2729404
0000b0 56 74 05 bf bc dd f3 3d 73 c3 36 40 41 4f 9e 3f
       -0.5213064 0.11907527 2.8556793 1.2367936
0000c0 19 04 06 40 ea 17 0f 40 a7 8e f9 bf aa 4a 60 bf
       2.094 2.2358346 -1.9496659 -0.8761393
0000d0 2f 6a a6 3f 9d ac 9f 3f 14 f6 94 bf 21 94 0b 3d
       1.3001155 1.2474552 -1.1637597 0.034076814
0000e0 2a 6f fc 3e 57 56 b5 be ba 14 11 3e 8a 19 17 40
       0.4930356 -0.35417435 0.14168063 2.3609338
0000f0 e4 ca 97 3f b7 ed ec 3f 13 2c e3 bd 34 47 e0 bf
       1.1858792 1.8510045 -0.11092391 -1.752173

l2.bias f4 [8]
000000 6d 18 9c 3f 1f 0d 0e 3e 8e 8e 7a 3e 49 a7 a0 be
       1.2194954 0.13872193 0.24468443 -0.31377628
000010 4a 08 10 3f 57 0c 3b be b6 70 1e 3f eb 42 80 3e
       0.5626265 -0.18266426 0.61890733 0.25051054

l3.weight f4 [26, 8]
000000 d9 77 b6 bf 4a 82 ec 3e 02 2a 30 3f 62 1f 7c be
       -1.4255325 0.46193153 0.688141 -0.24621347
000010 0e b4 9b bf 58 0e 86 bf 93 43 aa 3e cb 9d 0f bf
       -1.2164323 -1.0473127 0.3325468 -0.5610015
000020 72 57 0e 3d b4 5a bb bf e4 41 ad 3e b0 ac 14 3e
       0.034751363 -1.4637055 0.33839333 0.14519
000030 66 6a 5d bf 06 13 00 bf 5a f6 ae be 09 28 a7 3e
       -0.86490476 -0.5002903 -0.34172326 0.32647732
000040 d4 f2 0b c0 7e 5a a6 bf 4a c8 02 be 00 39 3a bd
       -2.186696 -1.2996366 -0.12771717 -0.045464516
000050 01 56 3a 3d 1b 1b be be 04 3c 61 be 98 10 22 3f
       0.045492176 -0.37130055 -0.2199555 0.6330657
000060 d0 3b c3 be 12 0f 34 3c 66 41 4a be d5 50 95 3e
       -0.3813157 0.010989921 -0.1975151 0.29163232
000070 0d 3a 3a 3e 38 40 b1 bc 91 99 d3 bd d4 b3 da bf
       0.18186207 -0.021637067 -0.10332025 -1.7086129
000080 82 f6 14 3f 22 69 2a 3e 1c 06 ab bf aa 32 ad be
       0.5818864 0.16641667 -1.336124 -0.33827716
000090 6e 9f d4 3d a0 fe e8 bf 1a 32 2c 3f 18 e3 25 c0
       0.10381971 -1.8202705 0.6726395 -2.5919857
0000a0 88 ec 4a bf 32 77 af 3e 86 cb 36 3f fc c3 cc 3d
       -0.7926717 0.34270626 0.714043 0.099983186
0000b0 39 95 b2 be fd 44 43 bf e1 6d e4 3e 45 8e 81 c0
       -0.34879473 -0.7627714 0.4461508 -4.048617
0000c0 8d f2 23 3d fd 0c 81 c0 80 f1 78 3e f9 ce 5d be
       0.040026236 -4.0328355 0.24310875 -0.21660985
0000d0 4d 2d 18 3e bc 6b 6b be 3b b4 0b c0 d2 fc 4c 3f
       0.14861031 -0.22990316 -2.1828754 0.80073273
0000e0 99 7d fe bf 66 28 4f c0 60 98 2c c0 5a 52 67 3e
       -1.9882079 -3.2368407 -2.6968002 0.22590008
0000f0 d0 b5 0b 3f 29 2b 46 3d df 75 54 be 28 fb 6c 3f
       0.545743 0.048381004 -0.20748089 0.92570734
000100 dc 02 b2 bf f9 fa d1 3e ca d3 f7 be c7 e3 a2 3e
       -1.3907123 0.4101179 -0.4840377 0.31814405
000110 ee f5 97 3e a0 3f 93 bf b1 73 72 3d 4d 21 1d 3d
       0.29679817 -1.1503792 0.059192363 0.038361836
000120 67 04 41 3e fc 9a e2 bf 98 a9 7e bf 22 50 19 3e
       0.18849336 -1.7703547 -0.9947753 0.14971974
000130 a7 68 f2 3e 32 08 60 be 57 e5 b0 be 65 6a b3 3d
       0.47345468 -0.21878126 -0.34549972 0.087605275
000140 7d c1 47 bf bf 6b e0 be 4b 45 fc 3c b2 56 2c 3e
       -0.78029615 -0.43832204 0.03079476 0.16829947
000150 63 45 a7 be 87 f2 44 c0 e8 4b 93 3e 46 45 5c 3f
       -0.32670125 -3.0773027 0.2876885 0.860432
000160 bf a5 74 3f 26 86 59 be df c6 36 3f 6e c9 31 3e
       0.9556541 -0.2124258 0.71397203 0.17361996
000170 55 a0 3c c0 5c a8 d7 bf ad 18 0f 3f b6 a0 30 c0
       -2.947286 -1.6848254 0.5589703 -2.759809
000180 80 c9 46 3f 01 dc 06 c0 04 7c 96 3e fa 82 26 3e
       0.77651215 -2.107178 0.2939149 0.16260901
000190 5c 6a b5 bf 4e 9a ae 3d f8 e0 04 3d ce 7b ea bf
       -1.4173083 0.08525525 0.03244111 -1.8319032
0001a0 bb ea b5 3e c6 0e 53 be ef 79 f4 3e e4 65 8c be
       0.35530648 -0.20611104 0.47749278 -0.27421486
0001b0 b9 9f 45 c0 8e eb 9e 3e 0c 7a d2 bd 48 38 5e c0
       -3.0878737 0.3103909 -0.10277185 -3.4721851
0001c0 ff ff 9d 3e 9d 9f 0c bf ba 46 59 3e b6 c3 f1 bd
       0.30859372 -0.5493105 0.21218386 -0.11804907
0001d0 ea 46 ff be 0e f0 b2 bf 6e 24 22 3f 31 a2 97 bf
       -0.4985879 -1.3979509 0.6333684 -1.1846372
0001e0 7f 08 ae bf b2 3d 89 be d7 7c 28 c0 42 8f 17 3e
       -1.3596343 -0.26804882 -2.6326196 0.14800742
0001f0 33 fd 37 3f 7e 6c 8f bf 6c e1 1b 3f 96 ed 2f 3e
       0.71870726 -1.1204984 0.6089084 0.17180476
000200 3b 4c a8 bf 10 d8 44 be 35 98 08 3f 80 11 79 bd
       -1.3148264 -0.19223046 0.5335725 -0.060807705
000210 32 4e b5 bf 20 43 96 3e d9 89 0f bf 89 94 99 bd
       -1.4164488 0.29348087 -0.56069714 -0.07499034
000220 94 2a 78 3f 7b 2d cc bf df e3 56 be a7 e8 b4 3e
       0.9693997 -1.595138 -0.20985363 0.3533375
000230 05 b1 68 be bd e1 2a 3f 82 ca f5 bf 36 a3 1e c0
       -0.22723778 0.667507 -1.9202425 -2.4787116
000240 3e 44 32 3f cc 06 85 c0 45 26 32 c0 82 13 7d 3e
       0.6963538 -4.1570797 -2.7835858 0.24714473
000250 b8 41 e6 bd 51 bd c1 3e 8f 81 ab bf 8f 08 2c 3f
       -0.112430036 0.3783975 -1.3398913 0.6720056
000260 54 66 b5 be e2 7f 27 3e a1 be 91 3c 90 91 ae bd
       -0.35429633 0.16357377 0.017791094 -0.085238576
000270 97 e1 50 bd 6f c7 cb 3e 88 59 33 c0 44 93 81 bf
       -0.05099639 0.39800593 -2.8023396 -1.0123067
000280 5e 5b 23 bf 79 2a 14 c0 a4 eb 04 bf ba a8 45 be
       -0.6381129 -2.3150923 -0.5192206 -0.19302645
000290 bb 72 a6 3c f8 05 49 3f 61 ac 0e c0 54 5c 57 bd
       0.02031838 0.7852473 -2.2292712 -0.052578285
0002a0 3b 07 2c 3e ec 8b ab 3c 5d 2c 8d 3e 44 04 11 be
       0.16799633 0.020940743 0.2757291 -0.14161783
0002b0 7a 90 c5 bf 1d d6 09 ba 59 5c 03 3e c7 ca ba bf
       -1.5434716 -0.00052580406 0.12828197 -1.4593133
0002c0 3e 75 50 3e c2 78 bb be 8b 6a 71 c0 d5 61 b4 3e
       0.20357224 -0.36615568 -3.7721279 0.3523089
0002d0 a6 f7 0a 3f ea 2b 10 bf 41 53 f3 3e 03 94 4d bf
       0.5428413 -0.5631701 0.47524455 -0.8030397
0002e0 0b 9e 87 3f a3 a6 44 c0 79 f3 d2 bf 48 1e aa 3d
       1.0595106 -3.0726707 -1.6480552 0.08306557
0002f0 48 f0 0a be e1 58 c8 3c da 04 74 3e f3 59 1c c0
       -0.13568223 0.024456443 0.23829976 -2.44299
000300 56 60 73 3e cb d8 9e be 7d 60 2a 3f 45 ef b1 3e
       0.23767218 -0.31024775 0.6655348 0.3475286
000310 ce 16 d8 bf 1a 2d 00 3f 70 00 0e c0 e8 47 d1 bf
       -1.688196 0.5006882 -2.2187767 -1.6350069
000320 fb f8 1d c0 58 62 82 be 9d be 37 3f 5c 8e 7a be
       -2.4683216 -0.25465655 0.7177523 -0.24468368
000330 88 c7 fd bd 50 72 08 3c 70 90 2f c0 b4 87 15 be
       -0.12391573 0.0083280355 -2.7431908 -0.14602548

l3.bias f4 [26]
000000 71 8b 81 be 79 aa 3f be 82 47 22 be 02 10 8b bc
       -0.25301698 -0.18717374 -0.1584759 -0.016975407
000010 db 3f 9d 3e e8 da b9 3d f2 9e 6e be ce 32 23 3f
       0.3071278 0.09074956 -0.2330282 0.63749397
000020 10 c5 3e 3d 82 8f 15 3e c0 8f f7 bd c0 ef 10 3e
       0.046574652 0.14605525 -0.12087965 0.14153957
000030 54 26 cd be bc 22 84 be 64 d8 98 be 4d f0 e0 bd
       -0.40068305 -0.2580775 -0.29852593 -0.10983334
000040 01 11 82 be c5 69 8b 3e 93 7e d1 3e 75 37 05 3d
       -0.25403598 0.27229133 0.4091688 0.03252359
000050 60 5b 80 bd bc 93 15 3e 03 15 22 be a2 99 4a bd
       -0.062674284 0.14607137 -0.15828328 -0.049462922
000060 47 b5 9f 3e 74 b8 02 3e
       0.3119299 0.12765676
